…
Permuting layer 5
Permuting layer 6
Permuting layer 7
Permuting layer 8
Permuting layer 9
Permuting layer 10
Permuting layer 11
Permuting layer 12
Permuting layer 13
Permuting layer 14
Permuting layer 15
Permuting layer 16
Permuting layer 17
Permuting layer 18
Permuting layer 19
Permuting layer 20
Permuting layer 21
Permuting layer 22
Permuting layer 23
Permuting layer 24
Permuting layer 25
Permuting layer 26
Permuting layer 27
Permuting layer 28
Permuting layer 29
Permuting layer 30
Permuting layer 31
model.embed_tokens.weight                        -> token_embd.weight                        | F16    | [32000, 4096]
model.layers.0.self_attn.q_proj.weight           -> blk.0.attn_q.weight                      | F16    | [4096, 4096]
model.layers.0.self_attn.k_proj.weight           -> blk.0.attn_k.weight                      | F16    | [4096, 4096]
model.layers.0.self_attn.v_proj.weight           -> blk.0.attn_v.weight                      | F16    | [4096, 4096]
model.layers.0.self_attn.o_proj.weight           -> blk.0.attn_output.weight                 | F16    | [4096, 4096]
skipping tensor blk.0.attn_rot_embd
model.layers.0.mlp.gate_proj.weight              -> blk.0.ffn_gate.weight                    | F16    | [11008, 4096]
model.layers.0.mlp.down_proj.weight              -> blk.0.ffn_down.weight                    | F16    | [4096, 11008]
model.layers.0.mlp.up_proj.weight                -> blk.0.ffn_up.weight                      | F16    | [11008, 4096]
model.layers.0.input_layernorm.weight            -> blk.0.attn_norm.weight                   | F16    | [4096]
model.layers.0.post_attention_layernorm.weight   -> blk.0.ffn_norm.weight                    | F16    | [4096]
model.layers.1.self_attn.q_proj.weight           -> blk.1.attn_q.weight                      | F16    | [4096, 4096]
model.layers.1.self_attn.k_proj.weight           -> blk.1.attn_k.weight                      | F16    | [4096, 4096]
model.layers.1.self_attn.v_proj.weight           -> blk.1.attn_v.weight                      | F16    | [4096, 4096]
model.layers.1.self_attn.o_proj.weight           -> blk.1.attn_output.weight                 | F16    | [4096, 4096]
skipping tensor blk.1.attn_rot_embd
model.layers.1.mlp.gate_proj.weight              -> blk.1.ffn_gate.weight                    | F16    | [11008, 4096]
model.layers.1.mlp.down_proj.weight              -> blk.1.ffn_down.weight                    | F16    | [4096, 11008]
model.layers.1.mlp.up_proj.weight                -> blk.1.ffn_up.weight                      | F16    | [11008, 4096]
model.layers.1.input_layernorm.weight            -> blk.1.attn_norm.weight                   | F16    | [4096]
model.layers.1.post_attention_layernorm.weight   -> blk.1.ffn_norm.weight                    | F16    | [4096]
model.layers.2.self_attn.q_proj.weight           -> blk.2.attn_q.weight                      | F16    | [4096, 4096]
model.layers.2.self_attn.k_proj.weight           -> blk.2.attn_k.weight                      | F16    | [4096, 4096]
model.layers.2.self_attn.v_proj.weight           -> blk.2.attn_v.weight                      | F16    | [4096, 4096]
model.layers.2.self_attn.o_proj.weight           -> blk.2.attn_output.weight                 | F16    | [4096, 4096]
skipping tensor blk.2.attn_rot_embd
model.layers.2.mlp.gate_proj.weight              -> blk.2.ffn_gate.weight                    | F16    | [11008, 4096]
model.layers.2.mlp.down_proj.weight              -> blk.2.ffn_down.weight                    | F16    | [4096, 11008]
model.layers.2.mlp.up_proj.weight                -> blk.2.ffn_up.weight                      | F16    | [11008, 4096]
model.layers.2.input_layernorm.weight            -> blk.2.attn_norm.weight                   | F16    | [4096]
model.layers.2.post_attention_layernorm.weight   -> blk.2.ffn_norm.weight                    | F16    | [4096]
model.layers.3.self_attn.q_proj.weight           -> blk.3.attn_q.weight                      | F16    | [4096, 4096]
model.layers.3.self_attn.k_proj.weight           -> blk.3.attn_k.weight                      | F16    | [4096, 4096]
model.layers.3.self_attn.v_proj.weight           -> blk.3.attn_v.weight                      | F16    | [4096, 4096]
model.layers.3.self_attn.o_proj.weight           -> blk.3.attn_output.weight                 | F16    | [4096, 4096]
skipping tensor blk.3.attn_rot_embd
model.layers.3.mlp.gate_proj.weight              -> blk.3.ffn_gate.weight                    | F16    | [11008, 4096]
model.layers.3.mlp.down_proj.weight              -> blk.3.ffn_down.weight                    | F16    | [4096, 11008]
model.layers.3.mlp.up_proj.weight                -> blk.3.ffn_up.weight                      | F16    | [11008, 4096]
model.layers.3.input_layernorm.weight            -> blk.3.attn_norm.weight                   | F16    | [4096]
model.layers.3.post_attention_layernorm.weight   -> blk.3.ffn_norm.weight                    | F16    | [4096]
model.layers.4.self_attn.q_proj.weight           -> blk.4.attn_q.weight                      | F16    | [4096, 4096]
model.layers.4.self_attn.k_proj.weight           -> blk.4.attn_k.weight                      | F16    | [4096, 4096]
model.layers.4.self_attn.v_proj.weight           -> blk.4.attn_v.weight                      | F16    | [4096, 4096]
model.layers.4.self_attn.o_proj.weight           -> blk.4.attn_output.weight                 | F16    | [4096, 4096]
skipping tensor blk.4.attn_rot_embd
model.layers.4.mlp.gate_proj.weight              -> blk.4.ffn_gate.weight                    | F16    | [11008, 4096]
model.layers.4.mlp.down_proj.weight              -> blk.4.ffn_down.weight                    | F16    | [4096, 11008]
model.layers.4.mlp.up_proj.weight                -> blk.4.ffn_up.weight                      | F16    | [11008, 4096]
model.layers.4.input_layernorm.weight            -> blk.4.attn_norm.weight                   | F16    | [4096]
model.layers.4.post_attention_layernorm.weight   -> blk.4.ffn_norm.weight                    | F16    | [4096]
model.layers.5.self_attn.q_proj.weight           -> blk.5.attn_q.weight                      | F16    | [4096, 4096]
model.layers.5.self_attn.k_proj.weight           -> blk.5.attn_k.weight                      | F16    | [4096, 4096]
model.layers.5.self_attn.v_proj.weight           -> blk.5.attn_v.weight                      | F16    | [4096, 4096]
model.layers.5.self_attn.o_proj.weight           -> blk.5.attn_output.weight                 | F16    | [4096, 4096]
skipping tensor blk.5.attn_rot_embd
model.layers.5.mlp.gate_proj.weight              -> blk.5.ffn_gate.weight                    | F16    | [11008, 4096]
model.layers.5.mlp.down_proj.weight              -> blk.5.ffn_down.weight                    | F16    | [4096, 11008]
model.layers.5.mlp.up_proj.weight                -> blk.5.ffn_up.weight                      | F16    | [11008, 4096]
model.layers.5.input_layernorm.weight            -> blk.5.attn_norm.weight                   | F16    | [4096]
model.layers.5.post_attention_layernorm.weight   -> blk.5.ffn_norm.weight                    | F16    | [4096]
model.layers.6.self_attn.q_proj.weight           -> blk.6.attn_q.weight                      | F16    | [4096, 4096]
model.layers.6.self_attn.k_proj.weight           -> blk.6.attn_k.weight                      | F16    | [4096, 4096]
model.layers.6.self_attn.v_proj.weight           -> blk.6.attn_v.weight                      | F16    | [4096, 4096]
model.layers.6.self_attn.o_proj.weight           -> blk.6.attn_output.weight                 | F16    | [4096, 4096]
skipping tensor blk.6.attn_rot_embd
model.layers.6.mlp.gate_proj.weight              -> blk.6.ffn_gate.weight                    | F16    | [11008, 4096]
model.layers.6.mlp.down_proj.weight              -> blk.6.ffn_down.weight                    | F16    | [4096, 11008]
model.layers.6.mlp.up_proj.weight                -> blk.6.ffn_up.weight                      | F16    | [11008, 4096]
model.layers.6.input_layernorm.weight            -> blk.6.attn_norm.weight                   | F16    | [4096]
model.layers.6.post_attention_layernorm.weight   -> blk.6.ffn_norm.weight                    | F16    | [4096]
model.layers.7.self_attn.q_proj.weight           -> blk.7.attn_q.weight                      | F16    | [4096, 4096]
model.layers.7.self_attn.k_proj.weight           -> blk.7.attn_k.weight                      | F16    | [4096, 4096]
model.layers.7.self_attn.v_proj.weight           -> blk.7.attn_v.weight                      | F16    | [4096, 4096]
model.layers.7.self_attn.o_proj.weight           -> blk.7.attn_output.weight                 | F16    | [4096, 4096]
skipping tensor blk.7.attn_rot_embd
model.layers.7.mlp.gate_proj.weight              -> blk.7.ffn_gate.weight                    | F16    | [11008, 4096]
model.layers.7.mlp.down_proj.weight              -> blk.7.ffn_down.weight                    | F16    | [4096, 11008]
model.layers.7.mlp.up_proj.weight                -> blk.7.ffn_up.weight                      | F16    | [11008, 4096]
model.layers.7.input_layernorm.weight            -> blk.7.attn_norm.weight                   | F16    | [4096]
model.layers.7.post_attention_layernorm.weight   -> blk.7.ffn_norm.weight                    | F16    | [4096]
model.layers.8.self_attn.q_proj.weight           -> blk.8.attn_q.weight                      | F16    | [4096, 4096]
model.layers.8.self_attn.k_proj.weight           -> blk.8.attn_k.weight                      | F16    | [4096, 4096]
model.layers.8.self_attn.v_proj.weight           -> blk.8.attn_v.weight                      | F16    | [4096, 4096]
model.layers.8.self_attn.o_proj.weight           -> blk.8.attn_output.weight                 | F16    | [4096, 4096]
skipping tensor blk.8.attn_rot_embd
model.layers.8.mlp.gate_proj.weight              -> blk.8.ffn_gate.weight                    | F16    | [11008, 4096]
model.layers.8.mlp.down_proj.weight              -> blk.8.ffn_down.weight                    | F16    | [4096, 11008]
model.layers.8.mlp.up_proj.weight                -> blk.8.ffn_up.weight                      | F16    | [11008, 4096]
model.layers.8.input_layernorm.weight            -> blk.8.attn_norm.weight                   | F16    | [4096]
model.layers.8.post_attention_layernorm.weight   -> blk.8.ffn_norm.weight                    | F16    | [4096]
model.layers.9.self_attn.q_proj.weight           -> blk.9.attn_q.weight                      | F16    | [4096, 4096]
model.layers.9.self_attn.k_proj.weight           -> blk.9.attn_k.weight                      | F16    | [4096, 4096]
model.layers.9.self_attn.v_proj.weight           -> blk.9.attn_v.weight                      | F16    | [4096, 4096]
model.layers.9.self_attn.o_proj.weight           -> blk.9.attn_output.weight                 | F16    | [4096, 4096]
skipping tensor blk.9.attn_rot_embd
model.layers.9.mlp.gate_proj.weight              -> blk.9.ffn_gate.weight                    | F16    | [11008, 4096]
model.layers.9.mlp.down_proj.weight              -> blk.9.ffn_down.weight                    | F16    | [4096, 11008]
model.layers.9.mlp.up_proj.weight                -> blk.9.ffn_up.weight                      | F16    | [11008, 4096]
model.layers.9.input_layernorm.weight            -> blk.9.attn_norm.weight                   | F16    | [4096]
model.layers.9.post_attention_layernorm.weight   -> blk.9.ffn_norm.weight                    | F16    | [4096]
model.layers.10.self_attn.q_proj.weight          -> blk.10.attn_q.weight                     | F16    | [4096, 4096]
model.layers.10.self_attn.k_proj.weight          -> blk.10.attn_k.weight                     | F16    | [4096, 4096]
model.layers.10.self_attn.v_proj.weight          -> blk.10.attn_v.weight                     | F16    | [4096, 4096]
model.layers.10.self_attn.o_proj.weight          -> blk.10.attn_output.weight                | F16    | [4096, 4096]
skipping tensor blk.10.attn_rot_embd
model.layers.10.mlp.gate_proj.weight             -> blk.10.ffn_gate.weight                   | F16    | [11008, 4096]
model.layers.10.mlp.down_proj.weight             -> blk.10.ffn_down.weight                   | F16    | [4096, 11008]
model.layers.10.mlp.up_proj.weight               -> blk.10.ffn_up.weight                     | F16    | [11008, 4096]
model.layers.10.input_layernorm.weight           -> blk.10.attn_norm.weight                  | F16    | [4096]
model.layers.10.post_attention_layernorm.weight  -> blk.10.ffn_norm.weight                   | F16    | [4096]
model.layers.11.self_attn.q_proj.weight          -> blk.11.attn_q.weight                     | F16    | [4096, 4096]
model.layers.11.self_attn.k_proj.weight          -> blk.11.attn_k.weight                     | F16    | [4096, 4096]
model.layers.11.self_attn.v_proj.weight          -> blk.11.attn_v.weight                     | F16    | [4096, 4096]
model.layers.11.self_attn.o_proj.weight          -> blk.11.attn_output.weight                | F16    | [4096, 4096]
skipping tensor blk.11.attn_rot_embd
model.layers.11.mlp.gate_proj.weight             -> blk.11.ffn_gate.weight                   | F16    | [11008, 4096]
model.layers.11.mlp.down_proj.weight             -> blk.11.ffn_down.weight                   | F16    | [4096, 11008]
model.layers.11.mlp.up_proj.weight               -> blk.11.ffn_up.weight                     | F16    | [11008, 4096]
model.layers.11.input_layernorm.weight           -> blk.11.attn_norm.weight                  | F16    | [4096]
model.layers.11.post_attention_layernorm.weight  -> blk.11.ffn_norm.weight                   | F16    | [4096]
model.layers.12.self_attn.q_proj.weight          -> blk.12.attn_q.weight                     | F16    | [4096, 4096]
model.layers.12.self_attn.k_proj.weight          -> blk.12.attn_k.weight                     | F16    | [4096, 4096]
model.layers.12.self_attn.v_proj.weight          -> blk.12.attn_v.weight                     | F16    | [4096, 4096]
model.layers.12.self_attn.o_proj.weight          -> blk.12.attn_output.weight                | F16    | [4096, 4096]
skipping tensor blk.12.attn_rot_embd
model.layers.12.mlp.gate_proj.weight             -> blk.12.ffn_gate.weight                   | F16    | [11008, 4096]
model.layers.12.mlp.down_proj.weight             -> blk.12.ffn_down.weight                   | F16    | [4096, 11008]
model.layers.12.mlp.up_proj.weight               -> blk.12.ffn_up.weight                     | F16    | [11008, 4096]
model.layers.12.input_layernorm.weight           -> blk.12.attn_norm.weight                  | F16    | [4096]
model.layers.12.post_attention_layernorm.weight  -> blk.12.ffn_norm.weight                   | F16    | [4096]
model.layers.13.self_attn.q_proj.weight          -> blk.13.attn_q.weight                     | F16    | [4096, 4096]
model.layers.13.self_attn.k_proj.weight          -> blk.13.attn_k.weight                     | F16    | [4096, 4096]
model.layers.13.self_attn.v_proj.weight          -> blk.13.attn_v.weight                     | F16    | [4096, 4096]
model.layers.13.self_attn.o_proj.weight          -> blk.13.attn_output.weight                | F16    | [4096, 4096]
skipping tensor blk.13.attn_rot_embd
model.layers.13.mlp.gate_proj.weight             -> blk.13.ffn_gate.weight                   | F16    | [11008, 4096]
model.layers.13.mlp.down_proj.weight             -> blk.13.ffn_down.weight                   | F16    | [4096, 11008]
model.layers.13.mlp.up_proj.weight               -> blk.13.ffn_up.weight                     | F16    | [11008, 4096]
model.layers.13.input_layernorm.weight           -> blk.13.attn_norm.weight                  | F16    | [4096]
model.layers.13.post_attention_layernorm.weight  -> blk.13.ffn_norm.weight                   | F16    | [4096]
model.layers.14.self_attn.q_proj.weight          -> blk.14.attn_q.weight                     | F16    | [4096, 4096]
model.layers.14.self_attn.k_proj.weight          -> blk.14.attn_k.weight                     | F16    | [4096, 4096]
model.layers.14.self_attn.v_proj.weight          -> blk.14.attn_v.weight                     | F16    | [4096, 4096]
model.layers.14.self_attn.o_proj.weight          -> blk.14.attn_output.weight                | F16    | [4096, 4096]
skipping tensor blk.14.attn_rot_embd
model.layers.14.mlp.gate_proj.weight             -> blk.14.ffn_gate.weight                   | F16    | [11008, 4096]
model.layers.14.mlp.down_proj.weight             -> blk.14.ffn_down.weight                   | F16    | [4096, 11008]
model.layers.14.mlp.up_proj.weight               -> blk.14.ffn_up.weight                     | F16    | [11008, 4096]
model.layers.14.input_layernorm.weight           -> blk.14.attn_norm.weight                  | F16    | [4096]
model.layers.14.post_attention_layernorm.weight  -> blk.14.ffn_norm.weight                   | F16    | [4096]
model.layers.15.self_attn.q_proj.weight          -> blk.15.attn_q.weight                     | F16    | [4096, 4096]
model.layers.15.self_attn.k_proj.weight          -> blk.15.attn_k.weight                     | F16    | [4096, 4096]
model.layers.15.self_attn.v_proj.weight          -> blk.15.attn_v.weight                     | F16    | [4096, 4096]
model.layers.15.self_attn.o_proj.weight          -> blk.15.attn_output.weight                | F16    | [4096, 4096]
skipping tensor blk.15.attn_rot_embd
model.layers.15.mlp.gate_proj.weight             -> blk.15.ffn_gate.weight                   | F16    | [11008, 4096]
model.layers.15.mlp.down_proj.weight             -> blk.15.ffn_down.weight                   | F16    | [4096, 11008]
model.layers.15.mlp.up_proj.weight               -> blk.15.ffn_up.weight                     | F16    | [11008, 4096]
model.layers.15.input_layernorm.weight           -> blk.15.attn_norm.weight                  | F16    | [4096]
model.layers.15.post_attention_layernorm.weight  -> blk.15.ffn_norm.weight                   | F16    | [4096]
model.layers.16.self_attn.q_proj.weight          -> blk.16.attn_q.weight                     | F16    | [4096, 4096]
model.layers.16.self_attn.k_proj.weight          -> blk.16.attn_k.weight                     | F16    | [4096, 4096]
model.layers.16.self_attn.v_proj.weight          -> blk.16.attn_v.weight                     | F16    | [4096, 4096]
model.layers.16.self_attn.o_proj.weight          -> blk.16.attn_output.weight                | F16    | [4096, 4096]
skipping tensor blk.16.attn_rot_embd
model.layers.16.mlp.gate_proj.weight             -> blk.16.ffn_gate.weight                   | F16    | [11008, 4096]
model.layers.16.mlp.down_proj.weight             -> blk.16.ffn_down.weight                   | F16    | [4096, 11008]
model.layers.16.mlp.up_proj.weight               -> blk.16.ffn_up.weight                     | F16    | [11008, 4096]
model.layers.16.input_layernorm.weight           -> blk.16.attn_norm.weight                  | F16    | [4096]
model.layers.16.post_attention_layernorm.weight  -> blk.16.ffn_norm.weight                   | F16    | [4096]
model.layers.17.self_attn.q_proj.weight          -> blk.17.attn_q.weight                     | F16    | [4096, 4096]
model.layers.17.self_attn.k_proj.weight          -> blk.17.attn_k.weight                     | F16    | [4096, 4096]
model.layers.17.self_attn.v_proj.weight          -> blk.17.attn_v.weight                     | F16    | [4096, 4096]
model.layers.17.self_attn.o_proj.weight          -> blk.17.attn_output.weight                | F16    | [4096, 4096]
skipping tensor blk.17.attn_rot_embd
model.layers.17.mlp.gate_proj.weight             -> blk.17.ffn_gate.weight                   | F16    | [11008, 4096]
model.layers.17.mlp.down_proj.weight             -> blk.17.ffn_down.weight                   | F16    | [4096, 11008]
model.layers.17.mlp.up_proj.weight               -> blk.17.ffn_up.weight                     | F16    | [11008, 4096]
model.layers.17.input_layernorm.weight           -> blk.17.attn_norm.weight                  | F16    | [4096]
model.layers.17.post_attention_layernorm.weight  -> blk.17.ffn_norm.weight                   | F16    | [4096]
model.layers.18.self_attn.q_proj.weight          -> blk.18.attn_q.weight                     | F16    | [4096, 4096]
model.layers.18.self_attn.k_proj.weight          -> blk.18.attn_k.weight                     | F16    | [4096, 4096]
model.layers.18.self_attn.v_proj.weight          -> blk.18.attn_v.weight                     | F16    | [4096, 4096]
model.layers.18.self_attn.o_proj.weight          -> blk.18.attn_output.weight                | F16    | [4096, 4096]
skipping tensor blk.18.attn_rot_embd
model.layers.18.mlp.gate_proj.weight             -> blk.18.ffn_gate.weight                   | F16    | [11008, 4096]
model.layers.18.mlp.down_proj.weight             -> blk.18.ffn_down.weight                   | F16    | [4096, 11008]
model.layers.18.mlp.up_proj.weight               -> blk.18.ffn_up.weight                     | F16    | [11008, 4096]
model.layers.18.input_layernorm.weight           -> blk.18.attn_norm.weight                  | F16    | [4096]
model.layers.18.post_attention_layernorm.weight  -> blk.18.ffn_norm.weight                   | F16    | [4096]
model.layers.19.self_attn.q_proj.weight          -> blk.19.attn_q.weight                     | F16    | [4096, 4096]
model.layers.19.self_attn.k_proj.weight          -> blk.19.attn_k.weight                     | F16    | [4096, 4096]
model.layers.19.self_attn.v_proj.weight          -> blk.19.attn_v.weight                     | F16    | [4096, 4096]
model.layers.19.self_attn.o_proj.weight          -> blk.19.attn_output.weight                | F16    | [4096, 4096]
skipping tensor blk.19.attn_rot_embd
model.layers.19.mlp.gate_proj.weight             -> blk.19.ffn_gate.weight                   | F16    | [11008, 4096]
model.layers.19.mlp.down_proj.weight             -> blk.19.ffn_down.weight                   | F16    | [4096, 11008]
model.layers.19.mlp.up_proj.weight               -> blk.19.ffn_up.weight                     | F16    | [11008, 4096]
model.layers.19.input_layernorm.weight           -> blk.19.attn_norm.weight                  | F16    | [4096]
model.layers.19.post_attention_layernorm.weight  -> blk.19.ffn_norm.weight                   | F16    | [4096]
model.layers.20.self_attn.q_proj.weight          -> blk.20.attn_q.weight                     | F16    | [4096, 4096]
model.layers.20.self_attn.k_proj.weight          -> blk.20.attn_k.weight                     | F16    | [4096, 4096]
model.layers.20.self_attn.v_proj.weight          -> blk.20.attn_v.weight                     | F16    | [4096, 4096]
model.layers.20.self_attn.o_proj.weight          -> blk.20.attn_output.weight                | F16    | [4096, 4096]
skipping tensor blk.20.attn_rot_embd
model.layers.20.mlp.gate_proj.weight             -> blk.20.ffn_gate.weight                   | F16    | [11008, 4096]
model.layers.20.mlp.down_proj.weight             -> blk.20.ffn_down.weight                   | F16    | [4096, 11008]
model.layers.20.mlp.up_proj.weight               -> blk.20.ffn_up.weight                     | F16    | [11008, 4096]
model.layers.20.input_layernorm.weight           -> blk.20.attn_norm.weight                  | F16    | [4096]
model.layers.20.post_attention_layernorm.weight  -> blk.20.ffn_norm.weight                   | F16    | [4096]
model.layers.21.self_attn.q_proj.weight          -> blk.21.attn_q.weight                     | F16    | [4096, 4096]
model.layers.21.self_attn.k_proj.weight          -> blk.21.attn_k.weight                     | F16    | [4096, 4096]
model.layers.21.self_attn.v_proj.weight          -> blk.21.attn_v.weight                     | F16    | [4096, 4096]
model.layers.21.self_attn.o_proj.weight          -> blk.21.attn_output.weight                | F16    | [4096, 4096]
skipping tensor blk.21.attn_rot_embd
model.layers.21.mlp.gate_proj.weight             -> blk.21.ffn_gate.weight                   | F16    | [11008, 4096]
model.layers.21.mlp.down_proj.weight             -> blk.21.ffn_down.weight                   | F16    | [4096, 11008]
model.layers.21.mlp.up_proj.weight               -> blk.21.ffn_up.weight                     | F16    | [11008, 4096]
model.layers.21.input_layernorm.weight           -> blk.21.attn_norm.weight                  | F16    | [4096]
model.layers.21.post_attention_layernorm.weight  -> blk.21.ffn_norm.weight                   | F16    | [4096]
model.layers.22.self_attn.q_proj.weight          -> blk.22.attn_q.weight                     | F16    | [4096, 4096]
model.layers.22.self_attn.k_proj.weight          -> blk.22.attn_k.weight                     | F16    | [4096, 4096]
model.layers.22.self_attn.v_proj.weight          -> blk.22.attn_v.weight                     | F16    | [4096, 4096]
model.layers.22.self_attn.o_proj.weight          -> blk.22.attn_output.weight                | F16    | [4096, 4096]
skipping tensor blk.22.attn_rot_embd
model.layers.22.mlp.gate_proj.weight             -> blk.22.ffn_gate.weight                   | F16    | [11008, 4096]
model.layers.22.mlp.down_proj.weight             -> blk.22.ffn_down.weight                   | F16    | [4096, 11008]
model.layers.22.mlp.up_proj.weight               -> blk.22.ffn_up.weight                     | F16    | [11008, 4096]
model.layers.22.input_layernorm.weight           -> blk.22.attn_norm.weight                  | F16    | [4096]
model.layers.22.post_attention_layernorm.weight  -> blk.22.ffn_norm.weight                   | F16    | [4096]
model.layers.23.self_attn.q_proj.weight          -> blk.23.attn_q.weight                     | F16    | [4096, 4096]
model.layers.23.self_attn.k_proj.weight          -> blk.23.attn_k.weight                     | F16    | [4096, 4096]
model.layers.23.self_attn.v_proj.weight          -> blk.23.attn_v.weight                     | F16    | [4096, 4096]
model.layers.23.self_attn.o_proj.weight          -> blk.23.attn_output.weight                | F16    | [4096, 4096]
skipping tensor blk.23.attn_rot_embd
model.layers.23.mlp.gate_proj.weight             -> blk.23.ffn_gate.weight                   | F16    | [11008, 4096]
model.layers.23.mlp.down_proj.weight             -> blk.23.ffn_down.weight                   | F16    | [4096, 11008]
model.layers.23.mlp.up_proj.weight               -> blk.23.ffn_up.weight                     | F16    | [11008, 4096]
model.layers.23.input_layernorm.weight           -> blk.23.attn_norm.weight                  | F16    | [4096]
model.layers.23.post_attention_layernorm.weight  -> blk.23.ffn_norm.weight                   | F16    | [4096]
model.layers.24.self_attn.q_proj.weight          -> blk.24.attn_q.weight                     | F16    | [4096, 4096]
model.layers.24.self_attn.k_proj.weight          -> blk.24.attn_k.weight                     | F16    | [4096, 4096]
model.layers.24.self_attn.v_proj.weight          -> blk.24.attn_v.weight                     | F16    | [4096, 4096]
model.layers.24.self_attn.o_proj.weight          -> blk.24.attn_output.weight                | F16    | [4096, 4096]
skipping tensor blk.24.attn_rot_embd
model.layers.24.mlp.gate_proj.weight             -> blk.24.ffn_gate.weight                   | F16    | [11008, 4096]
model.layers.24.mlp.down_proj.weight             -> blk.24.ffn_down.weight                   | F16    | [4096, 11008]
model.layers.24.mlp.up_proj.weight               -> blk.24.ffn_up.weight                     | F16    | [11008, 4096]
model.layers.24.input_layernorm.weight           -> blk.24.attn_norm.weight                  | F16    | [4096]
model.layers.24.post_attention_layernorm.weight  -> blk.24.ffn_norm.weight                   | F16    | [4096]
model.layers.25.self_attn.q_proj.weight          -> blk.25.attn_q.weight                     | F16    | [4096, 4096]
model.layers.25.self_attn.k_proj.weight          -> blk.25.attn_k.weight                     | F16    | [4096, 4096]
model.layers.25.self_attn.v_proj.weight          -> blk.25.attn_v.weight                     | F16    | [4096, 4096]
model.layers.25.self_attn.o_proj.weight          -> blk.25.attn_output.weight                | F16    | [4096, 4096]
skipping tensor blk.25.attn_rot_embd
model.layers.25.mlp.gate_proj.weight             -> blk.25.ffn_gate.weight                   | F16    | [11008, 4096]
model.layers.25.mlp.down_proj.weight             -> blk.25.ffn_down.weight                   | F16    | [4096, 11008]
model.layers.25.mlp.up_proj.weight               -> blk.25.ffn_up.weight                     | F16    | [11008, 4096]
model.layers.25.input_layernorm.weight           -> blk.25.attn_norm.weight                  | F16    | [4096]
model.layers.25.post_attention_layernorm.weight  -> blk.25.ffn_norm.weight                   | F16    | [4096]
model.layers.26.self_attn.q_proj.weight          -> blk.26.attn_q.weight                     | F16    | [4096, 4096]
model.layers.26.self_attn.k_proj.weight          -> blk.26.attn_k.weight                     | F16    | [4096, 4096]
model.layers.26.self_attn.v_proj.weight          -> blk.26.attn_v.weight                     | F16    | [4096, 4096]
model.layers.26.self_attn.o_proj.weight          -> blk.26.attn_output.weight                | F16    | [4096, 4096]
skipping tensor blk.26.attn_rot_embd
model.layers.26.mlp.gate_proj.weight             -> blk.26.ffn_gate.weight                   | F16    | [11008, 4096]
model.layers.26.mlp.down_proj.weight             -> blk.26.ffn_down.weight                   | F16    | [4096, 11008]
model.layers.26.mlp.up_proj.weight               -> blk.26.ffn_up.weight                     | F16    | [11008, 4096]
model.layers.26.input_layernorm.weight           -> blk.26.attn_norm.weight                  | F16    | [4096]
model.layers.26.post_attention_layernorm.weight  -> blk.26.ffn_norm.weight                   | F16    | [4096]
model.layers.27.self_attn.q_proj.weight          -> blk.27.attn_q.weight                     | F16    | [4096, 4096]
model.layers.27.self_attn.k_proj.weight          -> blk.27.attn_k.weight                     | F16    | [4096, 4096]
model.layers.27.self_attn.v_proj.weight          -> blk.27.attn_v.weight                     | F16    | [4096, 4096]
model.layers.27.self_attn.o_proj.weight          -> blk.27.attn_output.weight                | F16    | [4096, 4096]
skipping tensor blk.27.attn_rot_embd
model.layers.27.mlp.gate_proj.weight             -> blk.27.ffn_gate.weight                   | F16    | [11008, 4096]
model.layers.27.mlp.down_proj.weight             -> blk.27.ffn_down.weight                   | F16    | [4096, 11008]
model.layers.27.mlp.up_proj.weight               -> blk.27.ffn_up.weight                     | F16    | [11008, 4096]
model.layers.27.input_layernorm.weight           -> blk.27.attn_norm.weight                  | F16    | [4096]
model.layers.27.post_attention_layernorm.weight  -> blk.27.ffn_norm.weight                   | F16    | [4096]
model.layers.28.self_attn.q_proj.weight          -> blk.28.attn_q.weight                     | F16    | [4096, 4096]
model.layers.28.self_attn.k_proj.weight          -> blk.28.attn_k.weight                     | F16    | [4096, 4096]
model.layers.28.self_attn.v_proj.weight          -> blk.28.attn_v.weight                     | F16    | [4096, 4096]
model.layers.28.self_attn.o_proj.weight          -> blk.28.attn_output.weight                | F16    | [4096, 4096]
skipping tensor blk.28.attn_rot_embd
model.layers.28.mlp.gate_proj.weight             -> blk.28.ffn_gate.weight                   | F16    | [11008, 4096]
model.layers.28.mlp.down_proj.weight             -> blk.28.ffn_down.weight                   | F16    | [4096, 11008]
model.layers.28.mlp.up_proj.weight               -> blk.28.ffn_up.weight                     | F16    | [11008, 4096]
model.layers.28.input_layernorm.weight           -> blk.28.attn_norm.weight                  | F16    | [4096]
model.layers.28.post_attention_layernorm.weight  -> blk.28.ffn_norm.weight                   | F16    | [4096]
model.layers.29.self_attn.q_proj.weight          -> blk.29.attn_q.weight                     | F16    | [4096, 4096]
model.layers.29.self_attn.k_proj.weight          -> blk.29.attn_k.weight                     | F16    | [4096, 4096]
model.layers.29.self_attn.v_proj.weight          -> blk.29.attn_v.weight                     | F16    | [4096, 4096]
model.layers.29.self_attn.o_proj.weight          -> blk.29.attn_output.weight                | F16    | [4096, 4096]
skipping tensor blk.29.attn_rot_embd
model.layers.29.mlp.gate_proj.weight             -> blk.29.ffn_gate.weight                   | F16    | [11008, 4096]
model.layers.29.mlp.down_proj.weight             -> blk.29.ffn_down.weight                   | F16    | [4096, 11008]
model.layers.29.mlp.up_proj.weight               -> blk.29.ffn_up.weight                     | F16    | [11008, 4096]
model.layers.29.input_layernorm.weight           -> blk.29.attn_norm.weight                  | F16    | [4096]
model.layers.29.post_attention_layernorm.weight  -> blk.29.ffn_norm.weight                   | F16    | [4096]
model.layers.30.self_attn.q_proj.weight          -> blk.30.attn_q.weight                     | F16    | [4096, 4096]
model.layers.30.self_attn.k_proj.weight          -> blk.30.attn_k.weight                     | F16    | [4096, 4096]
model.layers.30.self_attn.v_proj.weight          -> blk.30.attn_v.weight                     | F16    | [4096, 4096]
model.layers.30.self_attn.o_proj.weight          -> blk.30.attn_output.weight                | F16    | [4096, 4096]
skipping tensor blk.30.attn_rot_embd
model.layers.30.mlp.gate_proj.weight             -> blk.30.ffn_gate.weight                   | F16    | [11008, 4096]
model.layers.30.mlp.down_proj.weight             -> blk.30.ffn_down.weight                   | F16    | [4096, 11008]
model.layers.30.mlp.up_proj.weight               -> blk.30.ffn_up.weight                     | F16    | [11008, 4096]
model.layers.30.input_layernorm.weight           -> blk.30.attn_norm.weight                  | F16    | [4096]
model.layers.30.post_attention_layernorm.weight  -> blk.30.ffn_norm.weight                   | F16    | [4096]
model.layers.31.self_attn.q_proj.weight          -> blk.31.attn_q.weight                     | F16    | [4096, 4096]
model.layers.31.self_attn.k_proj.weight          -> blk.31.attn_k.weight                     | F16    | [4096, 4096]
model.layers.31.self_attn.v_proj.weight          -> blk.31.attn_v.weight                     | F16    | [4096, 4096]
model.layers.31.self_attn.o_proj.weight          -> blk.31.attn_output.weight                | F16    | [4096, 4096]
skipping tensor blk.31.attn_rot_embd
model.layers.31.mlp.gate_proj.weight             -> blk.31.ffn_gate.weight                   | F16    | [11008, 4096]
model.layers.31.mlp.down_proj.weight             -> blk.31.ffn_down.weight                   | F16    | [4096, 11008]
model.layers.31.mlp.up_proj.weight               -> blk.31.ffn_up.weight                     | F16    | [11008, 4096]
model.layers.31.input_layernorm.weight           -> blk.31.attn_norm.weight                  | F16    | [4096]
model.layers.31.post_attention_layernorm.weight  -> blk.31.ffn_norm.weight                   | F16    | [4096]
model.norm.weight                                -> output_norm.weight                       | F16    | [4096]
lm_head.weight                                   -> output.weight                            | F16    | [32000, 4096]
Writing ../models-mnt/open-llama/7B-v2/ggml-model-f16.gguf, format 1
gguf: Setting special token type bos to 1
gguf: Setting special token type eos to 2
gguf: Setting special token type pad to 0
[  1/291] Writing tensor token_embd.weight                      | size  32000 x   4096  | type F16  | T+   0
[  2/291] Writing tensor blk.0.attn_q.weight                    | size   4096 x   4096  | type F16  | T+   0
…
main:    total time = 95331.46 ms
+ ./bin/main --model ../models-mnt/open-llama/7B-v2/ggml-model-f16.gguf -t 1 -ngl 999 -s 1234 -n 256 --ignore-eos -p 'I believe the meaning of life is'
Log start
main: build = 1360 (0aa6595)
main: built with cc (Ubuntu 11.4.0-1ubuntu1~22.04) 11.4.0 for x86_64-linux-gnu
main: seed  = 1234
ggml_init_cublas: found 1 CUDA devices:
  Device 0: Tesla V100-PCIE-16GB, compute capability 7.0
llama_model_loader: loaded meta data with 18 key-value pairs and 291 tensors from ../models-mnt/open-llama/7B-v2/ggml-model-f16.gguf (version GGUF V2 (latest))
llama_model_loader: - tensor    0:                token_embd.weight f16      [  4096, 32000,     1,     1 ]
llama_model_loader: - tensor    1:              blk.0.attn_q.weight f16      [  4096,  4096,     1,     1 ]
llama_model_loader: - tensor    2:              blk.0.attn_k.weight f16      [  4096,  4096,     1,     1 ]
llama_model_loader: - tensor    3:              blk.0.attn_v.weight f16      [  4096,  4096,     1,     1 ]
llama_model_loader: - tensor    4:         blk.0.attn_output.weight f16      [  4096,  4096,     1,     1 ]
llama_model_loader: - tensor    5:            blk.0.ffn_gate.weight f16      [  4096, 11008,     1,     1 ]
llama_model_loader: - tensor    6:            blk.0.ffn_down.weight f16      [ 11008,  4096,     1,     1 ]
llama_model_loader: - tensor    7:              blk.0.ffn_up.weight f16      [  4096, 11008,     1,     1 ]
llama_model_loader: - tensor    8:           blk.0.attn_norm.weight f32      [  4096,     1,     1,     1 ]
llama_model_loader: - tensor    9:            blk.0.ffn_norm.weight f32      [  4096,     1,     1,     1 ]
llama_model_loader: - tensor   10:              blk.1.attn_q.weight f16      [  4096,  4096,     1,     1 ]
llama_model_loader: - tensor   11:              blk.1.attn_k.weight f16      [  4096,  4096,     1,     1 ]
llama_model_loader: - tensor   12:              blk.1.attn_v.weight f16      [  4096,  4096,     1,     1 ]
llama_model_loader: - tensor   13:         blk.1.attn_output.weight f16      [  4096,  4096,     1,     1 ]
llama_model_loader: - tensor   14:            blk.1.ffn_gate.weight f16      [  4096, 11008,     1,     1 ]
llama_model_loader: - tensor   15:            blk.1.ffn_down.weight f16      [ 11008,  4096,     1,     1 ]
llama_model_loader: - tensor   16:              blk.1.ffn_up.weight f16      [  4096, 11008,     1,     1 ]
llama_model_loader: - tensor   17:           blk.1.attn_norm.weight f32      [  4096,     1,     1,     1 ]
llama_model_loader: - tensor   18:            blk.1.ffn_norm.weight f32      [  4096,     1,     1,     1 ]
llama_model_loader: - tensor   19:              blk.2.attn_q.weight f16      [  4096,  4096,     1,     1 ]
llama_model_loader: - tensor   20:              blk.2.attn_k.weight f16      [  4096,  4096,     1,     1 ]
llama_model_loader: - tensor   21:              blk.2.attn_v.weight f16      [  4096,  4096,     1,     1 ]
llama_model_loader: - tensor   22:         blk.2.attn_output.weight f16      [  4096,  4096,     1,     1 ]
llama_model_loader: - tensor   23:            blk.2.ffn_gate.weight f16      [  4096, 11008,     1,     1 ]
llama_model_loader: - tensor   24:            blk.2.ffn_down.weight f16      [ 11008,  4096,     1,     1 ]
llama_model_loader: - tensor   25:              blk.2.ffn_up.weight f16      [  4096, 11008,     1,     1 ]
llama_model_loader: - tensor   26:           blk.2.attn_norm.weight f32      [  4096,     1,     1,     1 ]
llama_model_loader: - tensor   27:            blk.2.ffn_norm.weight f32      [  4096,     1,     1,     1 ]
llama_model_loader: - tensor   28:              blk.3.attn_q.weight f16      [  4096,  4096,     1,     1 ]
llama_model_loader: - tensor   29:              blk.3.attn_k.weight f16      [  4096,  4096,     1,     1 ]
llama_model_loader: - tensor   30:              blk.3.attn_v.weight f16      [  4096,  4096,     1,     1 ]
llama_model_loader: - tensor   31:         blk.3.attn_output.weight f16      [  4096,  4096,     1,     1 ]
llama_model_loader: - tensor   32:            blk.3.ffn_gate.weight f16      [  4096, 11008,     1,     1 ]
llama_model_loader: - tensor   33:            blk.3.ffn_down.weight f16      [ 11008,  4096,     1,     1 ]
llama_model_loader: - tensor   34:              blk.3.ffn_up.weight f16      [  4096, 11008,     1,     1 ]
llama_model_loader: - tensor   35:           blk.3.attn_norm.weight f32      [  4096,     1,     1,     1 ]
llama_model_loader: - tensor   36:            blk.3.ffn_norm.weight f32      [  4096,     1,     1,     1 ]
llama_model_loader: - tensor   37:              blk.4.attn_q.weight f16      [  4096,  4096,     1,     1 ]
llama_model_loader: - tensor   38:              blk.4.attn_k.weight f16      [  4096,  4096,     1,     1 ]
llama_model_loader: - tensor   39:              blk.4.attn_v.weight f16      [  4096,  4096,     1,     1 ]
llama_model_loader: - tensor   40:         blk.4.attn_output.weight f16      [  4096,  4096,     1,     1 ]
llama_model_loader: - tensor   41:            blk.4.ffn_gate.weight f16      [  4096, 11008,     1,     1 ]
llama_model_loader: - tensor   42:            blk.4.ffn_down.weight f16      [ 11008,  4096,     1,     1 ]
llama_model_loader: - tensor   43:              blk.4.ffn_up.weight f16      [  4096, 11008,     1,     1 ]
llama_model_loader: - tensor   44:           blk.4.attn_norm.weight f32      [  4096,     1,     1,     1 ]
llama_model_loader: - tensor   45:            blk.4.ffn_norm.weight f32      [  4096,     1,     1,     1 ]
llama_model_loader: - tensor   46:              blk.5.attn_q.weight f16      [  4096,  4096,     1,     1 ]
llama_model_loader: - tensor   47:              blk.5.attn_k.weight f16      [  4096,  4096,     1,     1 ]
llama_model_loader: - tensor   48:              blk.5.attn_v.weight f16      [  4096,  4096,     1,     1 ]
llama_model_loader: - tensor   49:         blk.5.attn_output.weight f16      [  4096,  4096,     1,     1 ]
llama_model_loader: - tensor   50:            blk.5.ffn_gate.weight f16      [  4096, 11008,     1,     1 ]
llama_model_loader: - tensor   51:            blk.5.ffn_down.weight f16      [ 11008,  4096,     1,     1 ]
llama_model_loader: - tensor   52:              blk.5.ffn_up.weight f16      [  4096, 11008,     1,     1 ]
llama_model_loader: - tensor   53:           blk.5.attn_norm.weight f32      [  4096,     1,     1,     1 ]
llama_model_loader: - tensor   54:            blk.5.ffn_norm.weight f32      [  4096,     1,     1,     1 ]
llama_model_loader: - tensor   55:              blk.6.attn_q.weight f16      [  4096,  4096,     1,     1 ]
llama_model_loader: - tensor   56:              blk.6.attn_k.weight f16      [  4096,  4096,     1,     1 ]
llama_model_loader: - tensor   57:              blk.6.attn_v.weight f16      [  4096,  4096,     1,     1 ]
llama_model_loader: - tensor   58:         blk.6.attn_output.weight f16      [  4096,  4096,     1,     1 ]
llama_model_loader: - tensor   59:            blk.6.ffn_gate.weight f16      [  4096, 11008,     1,     1 ]
llama_model_loader: - tensor   60:            blk.6.ffn_down.weight f16      [ 11008,  4096,     1,     1 ]
llama_model_loader: - tensor   61:              blk.6.ffn_up.weight f16      [  4096, 11008,     1,     1 ]
llama_model_loader: - tensor   62:           blk.6.attn_norm.weight f32      [  4096,     1,     1,     1 ]
llama_model_loader: - tensor   63:            blk.6.ffn_norm.weight f32      [  4096,     1,     1,     1 ]
llama_model_loader: - tensor   64:              blk.7.attn_q.weight f16      [  4096,  4096,     1,     1 ]
llama_model_loader: - tensor   65:              blk.7.attn_k.weight f16      [  4096,  4096,     1,     1 ]
llama_model_loader: - tensor   66:              blk.7.attn_v.weight f16      [  4096,  4096,     1,     1 ]
llama_model_loader: - tensor   67:         blk.7.attn_output.weight f16      [  4096,  4096,     1,     1 ]
llama_model_loader: - tensor   68:            blk.7.ffn_gate.weight f16      [  4096, 11008,     1,     1 ]
llama_model_loader: - tensor   69:            blk.7.ffn_down.weight f16      [ 11008,  4096,     1,     1 ]
llama_model_loader: - tensor   70:              blk.7.ffn_up.weight f16      [  4096, 11008,     1,     1 ]
llama_model_loader: - tensor   71:           blk.7.attn_norm.weight f32      [  4096,     1,     1,     1 ]
llama_model_loader: - tensor   72:            blk.7.ffn_norm.weight f32      [  4096,     1,     1,     1 ]
llama_model_loader: - tensor   73:              blk.8.attn_q.weight f16      [  4096,  4096,     1,     1 ]
llama_model_loader: - tensor   74:              blk.8.attn_k.weight f16      [  4096,  4096,     1,     1 ]
llama_model_loader: - tensor   75:              blk.8.attn_v.weight f16      [  4096,  4096,     1,     1 ]
llama_model_loader: - tensor   76:         blk.8.attn_output.weight f16      [  4096,  4096,     1,     1 ]
llama_model_loader: - tensor   77:            blk.8.ffn_gate.weight f16      [  4096, 11008,     1,     1 ]
llama_model_loader: - tensor   78:            blk.8.ffn_down.weight f16      [ 11008,  4096,     1,     1 ]
llama_model_loader: - tensor   79:              blk.8.ffn_up.weight f16      [  4096, 11008,     1,     1 ]
llama_model_loader: - tensor   80:           blk.8.attn_norm.weight f32      [  4096,     1,     1,     1 ]
llama_model_loader: - tensor   81:            blk.8.ffn_norm.weight f32      [  4096,     1,     1,     1 ]
llama_model_loader: - tensor   82:              blk.9.attn_q.weight f16      [  4096,  4096,     1,     1 ]
llama_model_loader: - tensor   83:              blk.9.attn_k.weight f16      [  4096,  4096,     1,     1 ]
llama_model_loader: - tensor   84:              blk.9.attn_v.weight f16      [  4096,  4096,     1,     1 ]
llama_model_loader: - tensor   85:         blk.9.attn_output.weight f16      [  4096,  4096,     1,     1 ]
llama_model_loader: - tensor   86:            blk.9.ffn_gate.weight f16      [  4096, 11008,     1,     1 ]
llama_model_loader: - tensor   87:            blk.9.ffn_down.weight f16      [ 11008,  4096,     1,     1 ]
llama_model_loader: - tensor   88:              blk.9.ffn_up.weight f16      [  4096, 11008,     1,     1 ]
llama_model_loader: - tensor   89:           blk.9.attn_norm.weight f32      [  4096,     1,     1,     1 ]
llama_model_loader: - tensor   90:            blk.9.ffn_norm.weight f32      [  4096,     1,     1,     1 ]
llama_model_loader: - tensor   91:             blk.10.attn_q.weight f16      [  4096,  4096,     1,     1 ]
llama_model_loader: - tensor   92:             blk.10.attn_k.weight f16      [  4096,  4096,     1,     1 ]
llama_model_loader: - tensor   93:             blk.10.attn_v.weight f16      [  4096,  4096,     1,     1 ]
llama_model_loader: - tensor   94:        blk.10.attn_output.weight f16      [  4096,  4096,     1,     1 ]
llama_model_loader: - tensor   95:           blk.10.ffn_gate.weight f16      [  4096, 11008,     1,     1 ]
llama_model_loader: - tensor   96:           blk.10.ffn_down.weight f16      [ 11008,  4096,     1,     1 ]
llama_model_loader: - tensor   97:             blk.10.ffn_up.weight f16      [  4096, 11008,     1,     1 ]
llama_model_loader: - tensor   98:          blk.10.attn_norm.weight f32      [  4096,     1,     1,     1 ]
llama_model_loader: - tensor   99:           blk.10.ffn_norm.weight f32      [  4096,     1,     1,     1 ]
llama_model_loader: - tensor  100:             blk.11.attn_q.weight f16      [  4096,  4096,     1,     1 ]
llama_model_loader: - tensor  101:             blk.11.attn_k.weight f16      [  4096,  4096,     1,     1 ]
llama_model_loader: - tensor  102:             blk.11.attn_v.weight f16      [  4096,  4096,     1,     1 ]
llama_model_loader: - tensor  103:        blk.11.attn_output.weight f16      [  4096,  4096,     1,     1 ]
llama_model_loader: - tensor  104:           blk.11.ffn_gate.weight f16      [  4096, 11008,     1,     1 ]
llama_model_loader: - tensor  105:           blk.11.ffn_down.weight f16      [ 11008,  4096,     1,     1 ]
llama_model_loader: - tensor  106:             blk.11.ffn_up.weight f16      [  4096, 11008,     1,     1 ]
llama_model_loader: - tensor  107:          blk.11.attn_norm.weight f32      [  4096,     1,     1,     1 ]
llama_model_loader: - tensor  108:           blk.11.ffn_norm.weight f32      [  4096,     1,     1,     1 ]
llama_model_loader: - tensor  109:             blk.12.attn_q.weight f16      [  4096,  4096,     1,     1 ]
llama_model_loader: - tensor  110:             blk.12.attn_k.weight f16      [  4096,  4096,     1,     1 ]
llama_model_loader: - tensor  111:             blk.12.attn_v.weight f16      [  4096,  4096,     1,     1 ]
llama_model_loader: - tensor  112:        blk.12.attn_output.weight f16      [  4096,  4096,     1,     1 ]
llama_model_loader: - tensor  113:           blk.12.ffn_gate.weight f16      [  4096, 11008,     1,     1 ]
llama_model_loader: - tensor  114:           blk.12.ffn_down.weight f16      [ 11008,  4096,     1,     1 ]
llama_model_loader: - tensor  115:             blk.12.ffn_up.weight f16      [  4096, 11008,     1,     1 ]
llama_model_loader: - tensor  116:          blk.12.attn_norm.weight f32      [  4096,     1,     1,     1 ]
llama_model_loader: - tensor  117:           blk.12.ffn_norm.weight f32      [  4096,     1,     1,     1 ]
llama_model_loader: - tensor  118:             blk.13.attn_q.weight f16      [  4096,  4096,     1,     1 ]
llama_model_loader: - tensor  119:             blk.13.attn_k.weight f16      [  4096,  4096,     1,     1 ]
llama_model_loader: - tensor  120:             blk.13.attn_v.weight f16      [  4096,  4096,     1,     1 ]
llama_model_loader: - tensor  121:        blk.13.attn_output.weight f16      [  4096,  4096,     1,     1 ]
llama_model_loader: - tensor  122:           blk.13.ffn_gate.weight f16      [  4096, 11008,     1,     1 ]
llama_model_loader: - tensor  123:           blk.13.ffn_down.weight f16      [ 11008,  4096,     1,     1 ]
llama_model_loader: - tensor  124:             blk.13.ffn_up.weight f16      [  4096, 11008,     1,     1 ]
llama_model_loader: - tensor  125:          blk.13.attn_norm.weight f32      [  4096,     1,     1,     1 ]
llama_model_loader: - tensor  126:           blk.13.ffn_norm.weight f32      [  4096,     1,     1,     1 ]
llama_model_loader: - tensor  127:             blk.14.attn_q.weight f16      [  4096,  4096,     1,     1 ]
llama_model_loader: - tensor  128:             blk.14.attn_k.weight f16      [  4096,  4096,     1,     1 ]
llama_model_loader: - tensor  129:             blk.14.attn_v.weight f16      [  4096,  4096,     1,     1 ]
llama_model_loader: - tensor  130:        blk.14.attn_output.weight f16      [  4096,  4096,     1,     1 ]
llama_model_loader: - tensor  131:           blk.14.ffn_gate.weight f16      [  4096, 11008,     1,     1 ]
llama_model_loader: - tensor  132:           blk.14.ffn_down.weight f16      [ 11008,  4096,     1,     1 ]
llama_model_loader: - tensor  133:             blk.14.ffn_up.weight f16      [  4096, 11008,     1,     1 ]
llama_model_loader: - tensor  134:          blk.14.attn_norm.weight f32      [  4096,     1,     1,     1 ]
llama_model_loader: - tensor  135:           blk.14.ffn_norm.weight f32      [  4096,     1,     1,     1 ]
llama_model_loader: - tensor  136:             blk.15.attn_q.weight f16      [  4096,  4096,     1,     1 ]
llama_model_loader: - tensor  137:             blk.15.attn_k.weight f16      [  4096,  4096,     1,     1 ]
llama_model_loader: - tensor  138:             blk.15.attn_v.weight f16      [  4096,  4096,     1,     1 ]
llama_model_loader: - tensor  139:        blk.15.attn_output.weight f16      [  4096,  4096,     1,     1 ]
llama_model_loader: - tensor  140:           blk.15.ffn_gate.weight f16      [  4096, 11008,     1,     1 ]
llama_model_loader: - tensor  141:           blk.15.ffn_down.weight f16      [ 11008,  4096,     1,     1 ]
llama_model_loader: - tensor  142:             blk.15.ffn_up.weight f16      [  4096, 11008,     1,     1 ]
llama_model_loader: - tensor  143:          blk.15.attn_norm.weight f32      [  4096,     1,     1,     1 ]
llama_model_loader: - tensor  144:           blk.15.ffn_norm.weight f32      [  4096,     1,     1,     1 ]
llama_model_loader: - tensor  145:             blk.16.attn_q.weight f16      [  4096,  4096,     1,     1 ]
llama_model_loader: - tensor  146:             blk.16.attn_k.weight f16      [  4096,  4096,     1,     1 ]
llama_model_loader: - tensor  147:             blk.16.attn_v.weight f16      [  4096,  4096,     1,     1 ]
llama_model_loader: - tensor  148:        blk.16.attn_output.weight f16      [  4096,  4096,     1,     1 ]
llama_model_loader: - tensor  149:           blk.16.ffn_gate.weight f16      [  4096, 11008,     1,     1 ]
llama_model_loader: - tensor  150:           blk.16.ffn_down.weight f16      [ 11008,  4096,     1,     1 ]
llama_model_loader: - tensor  151:             blk.16.ffn_up.weight f16      [  4096, 11008,     1,     1 ]
llama_model_loader: - tensor  152:          blk.16.attn_norm.weight f32      [  4096,     1,     1,     1 ]
llama_model_loader: - tensor  153:           blk.16.ffn_norm.weight f32      [  4096,     1,     1,     1 ]
llama_model_loader: - tensor  154:             blk.17.attn_q.weight f16      [  4096,  4096,     1,     1 ]
llama_model_loader: - tensor  155:             blk.17.attn_k.weight f16      [  4096,  4096,     1,     1 ]
llama_model_loader: - tensor  156:             blk.17.attn_v.weight f16      [  4096,  4096,     1,     1 ]
llama_model_loader: - tensor  157:        blk.17.attn_output.weight f16      [  4096,  4096,     1,     1 ]
llama_model_loader: - tensor  158:           blk.17.ffn_gate.weight f16      [  4096, 11008,     1,     1 ]
llama_model_loader: - tensor  159:           blk.17.ffn_down.weight f16      [ 11008,  4096,     1,     1 ]
llama_model_loader: - tensor  160:             blk.17.ffn_up.weight f16      [  4096, 11008,     1,     1 ]
llama_model_loader: - tensor  161:          blk.17.attn_norm.weight f32      [  4096,     1,     1,     1 ]
llama_model_loader: - tensor  162:           blk.17.ffn_norm.weight f32      [  4096,     1,     1,     1 ]
llama_model_loader: - tensor  163:             blk.18.attn_q.weight f16      [  4096,  4096,     1,     1 ]
llama_model_loader: - tensor  164:             blk.18.attn_k.weight f16      [  4096,  4096,     1,     1 ]
llama_model_loader: - tensor  165:             blk.18.attn_v.weight f16      [  4096,  4096,     1,     1 ]
llama_model_loader: - tensor  166:        blk.18.attn_output.weight f16      [  4096,  4096,     1,     1 ]
llama_model_loader: - tensor  167:           blk.18.ffn_gate.weight f16      [  4096, 11008,     1,     1 ]
llama_model_loader: - tensor  168:           blk.18.ffn_down.weight f16      [ 11008,  4096,     1,     1 ]
llama_model_loader: - tensor  169:             blk.18.ffn_up.weight f16      [  4096, 11008,     1,     1 ]
llama_model_loader: - tensor  170:          blk.18.attn_norm.weight f32      [  4096,     1,     1,     1 ]
llama_model_loader: - tensor  171:           blk.18.ffn_norm.weight f32      [  4096,     1,     1,     1 ]
llama_model_loader: - tensor  172:             blk.19.attn_q.weight f16      [  4096,  4096,     1,     1 ]
llama_model_loader: - tensor  173:             blk.19.attn_k.weight f16      [  4096,  4096,     1,     1 ]
llama_model_loader: - tensor  174:             blk.19.attn_v.weight f16      [  4096,  4096,     1,     1 ]
llama_model_loader: - tensor  175:        blk.19.attn_output.weight f16      [  4096,  4096,     1,     1 ]
llama_model_loader: - tensor  176:           blk.19.ffn_gate.weight f16      [  4096, 11008,     1,     1 ]
llama_model_loader: - tensor  177:           blk.19.ffn_down.weight f16      [ 11008,  4096,     1,     1 ]
llama_model_loader: - tensor  178:             blk.19.ffn_up.weight f16      [  4096, 11008,     1,     1 ]
llama_model_loader: - tensor  179:          blk.19.attn_norm.weight f32      [  4096,     1,     1,     1 ]
llama_model_loader: - tensor  180:           blk.19.ffn_norm.weight f32      [  4096,     1,     1,     1 ]
llama_model_loader: - tensor  181:             blk.20.attn_q.weight f16      [  4096,  4096,     1,     1 ]
llama_model_loader: - tensor  182:             blk.20.attn_k.weight f16      [  4096,  4096,     1,     1 ]
llama_model_loader: - tensor  183:             blk.20.attn_v.weight f16      [  4096,  4096,     1,     1 ]
llama_model_loader: - tensor  184:        blk.20.attn_output.weight f16      [  4096,  4096,     1,     1 ]
llama_model_loader: - tensor  185:           blk.20.ffn_gate.weight f16      [  4096, 11008,     1,     1 ]
llama_model_loader: - tensor  186:           blk.20.ffn_down.weight f16      [ 11008,  4096,     1,     1 ]
llama_model_loader: - tensor  187:             blk.20.ffn_up.weight f16      [  4096, 11008,     1,     1 ]
llama_model_loader: - tensor  188:          blk.20.attn_norm.weight f32      [  4096,     1,     1,     1 ]
llama_model_loader: - tensor  189:           blk.20.ffn_norm.weight f32      [  4096,     1,     1,     1 ]
llama_model_loader: - tensor  190:             blk.21.attn_q.weight f16      [  4096,  4096,     1,     1 ]
llama_model_loader: - tensor  191:             blk.21.attn_k.weight f16      [  4096,  4096,     1,     1 ]
llama_model_loader: - tensor  192:             blk.21.attn_v.weight f16      [  4096,  4096,     1,     1 ]
llama_model_loader: - tensor  193:        blk.21.attn_output.weight f16      [  4096,  4096,     1,     1 ]
llama_model_loader: - tensor  194:           blk.21.ffn_gate.weight f16      [  4096, 11008,     1,     1 ]
llama_model_loader: - tensor  195:           blk.21.ffn_down.weight f16      [ 11008,  4096,     1,     1 ]
llama_model_loader: - tensor  196:             blk.21.ffn_up.weight f16      [  4096, 11008,     1,     1 ]
llama_model_loader: - tensor  197:          blk.21.attn_norm.weight f32      [  4096,     1,     1,     1 ]
llama_model_loader: - tensor  198:           blk.21.ffn_norm.weight f32      [  4096,     1,     1,     1 ]
llama_model_loader: - tensor  199:             blk.22.attn_q.weight f16      [  4096,  4096,     1,     1 ]
llama_model_loader: - tensor  200:             blk.22.attn_k.weight f16      [  4096,  4096,     1,     1 ]
llama_model_loader: - tensor  201:             blk.22.attn_v.weight f16      [  4096,  4096,     1,     1 ]
llama_model_loader: - tensor  202:        blk.22.attn_output.weight f16      [  4096,  4096,     1,     1 ]
llama_model_loader: - tensor  203:           blk.22.ffn_gate.weight f16      [  4096, 11008,     1,     1 ]
llama_model_loader: - tensor  204:           blk.22.ffn_down.weight f16      [ 11008,  4096,     1,     1 ]
llama_model_loader: - tensor  205:             blk.22.ffn_up.weight f16      [  4096, 11008,     1,     1 ]
llama_model_loader: - tensor  206:          blk.22.attn_norm.weight f32      [  4096,     1,     1,     1 ]
llama_model_loader: - tensor  207:           blk.22.ffn_norm.weight f32      [  4096,     1,     1,     1 ]
llama_model_loader: - tensor  208:             blk.23.attn_q.weight f16      [  4096,  4096,     1,     1 ]
llama_model_loader: - tensor  209:             blk.23.attn_k.weight f16      [  4096,  4096,     1,     1 ]
llama_model_loader: - tensor  210:             blk.23.attn_v.weight f16      [  4096,  4096,     1,     1 ]
llama_model_loader: - tensor  211:        blk.23.attn_output.weight f16      [  4096,  4096,     1,     1 ]
llama_model_loader: - tensor  212:           blk.23.ffn_gate.weight f16      [  4096, 11008,     1,     1 ]
llama_model_loader: - tensor  213:           blk.23.ffn_down.weight f16      [ 11008,  4096,     1,     1 ]
llama_model_loader: - tensor  214:             blk.23.ffn_up.weight f16      [  4096, 11008,     1,     1 ]
llama_model_loader: - tensor  215:          blk.23.attn_norm.weight f32      [  4096,     1,     1,     1 ]
llama_model_loader: - tensor  216:           blk.23.ffn_norm.weight f32      [  4096,     1,     1,     1 ]
llama_model_loader: - tensor  217:             blk.24.attn_q.weight f16      [  4096,  4096,     1,     1 ]
llama_model_loader: - tensor  218:             blk.24.attn_k.weight f16      [  4096,  4096,     1,     1 ]
llama_model_loader: - tensor  219:             blk.24.attn_v.weight f16      [  4096,  4096,     1,     1 ]
llama_model_loader: - tensor  220:        blk.24.attn_output.weight f16      [  4096,  4096,     1,     1 ]
llama_model_loader: - tensor  221:           blk.24.ffn_gate.weight f16      [  4096, 11008,     1,     1 ]
llama_model_loader: - tensor  222:           blk.24.ffn_down.weight f16      [ 11008,  4096,     1,     1 ]
llama_model_loader: - tensor  223:             blk.24.ffn_up.weight f16      [  4096, 11008,     1,     1 ]
llama_model_loader: - tensor  224:          blk.24.attn_norm.weight f32      [  4096,     1,     1,     1 ]
llama_model_loader: - tensor  225:           blk.24.ffn_norm.weight f32      [  4096,     1,     1,     1 ]
llama_model_loader: - tensor  226:             blk.25.attn_q.weight f16      [  4096,  4096,     1,     1 ]
llama_model_loader: - tensor  227:             blk.25.attn_k.weight f16      [  4096,  4096,     1,     1 ]
llama_model_loader: - tensor  228:             blk.25.attn_v.weight f16      [  4096,  4096,     1,     1 ]
llama_model_loader: - tensor  229:        blk.25.attn_output.weight f16      [  4096,  4096,     1,     1 ]
llama_model_loader: - tensor  230:           blk.25.ffn_gate.weight f16      [  4096, 11008,     1,     1 ]
llama_model_loader: - tensor  231:           blk.25.ffn_down.weight f16      [ 11008,  4096,     1,     1 ]
llama_model_loader: - tensor  232:             blk.25.ffn_up.weight f16      [  4096, 11008,     1,     1 ]
llama_model_loader: - tensor  233:          blk.25.attn_norm.weight f32      [  4096,     1,     1,     1 ]
llama_model_loader: - tensor  234:           blk.25.ffn_norm.weight f32      [  4096,     1,     1,     1 ]
llama_model_loader: - tensor  235:             blk.26.attn_q.weight f16      [  4096,  4096,     1,     1 ]
llama_model_loader: - tensor  236:             blk.26.attn_k.weight f16      [  4096,  4096,     1,     1 ]
llama_model_loader: - tensor  237:             blk.26.attn_v.weight f16      [  4096,  4096,     1,     1 ]
llama_model_loader: - tensor  238:        blk.26.attn_output.weight f16      [  4096,  4096,     1,     1 ]
llama_model_loader: - tensor  239:           blk.26.ffn_gate.weight f16      [  4096, 11008,     1,     1 ]
llama_model_loader: - tensor  240:           blk.26.ffn_down.weight f16      [ 11008,  4096,     1,     1 ]
llama_model_loader: - tensor  241:             blk.26.ffn_up.weight f16      [  4096, 11008,     1,     1 ]
llama_model_loader: - tensor  242:          blk.26.attn_norm.weight f32      [  4096,     1,     1,     1 ]
llama_model_loader: - tensor  243:           blk.26.ffn_norm.weight f32      [  4096,     1,     1,     1 ]
llama_model_loader: - tensor  244:             blk.27.attn_q.weight f16      [  4096,  4096,     1,     1 ]
llama_model_loader: - tensor  245:             blk.27.attn_k.weight f16      [  4096,  4096,     1,     1 ]
llama_model_loader: - tensor  246:             blk.27.attn_v.weight f16      [  4096,  4096,     1,     1 ]
llama_model_loader: - tensor  247:        blk.27.attn_output.weight f16      [  4096,  4096,     1,     1 ]
llama_model_loader: - tensor  248:           blk.27.ffn_gate.weight f16      [  4096, 11008,     1,     1 ]
llama_model_loader: - tensor  249:           blk.27.ffn_down.weight f16      [ 11008,  4096,     1,     1 ]
llama_model_loader: - tensor  250:             blk.27.ffn_up.weight f16      [  4096, 11008,     1,     1 ]
llama_model_loader: - tensor  251:          blk.27.attn_norm.weight f32      [  4096,     1,     1,     1 ]
llama_model_loader: - tensor  252:           blk.27.ffn_norm.weight f32      [  4096,     1,     1,     1 ]
llama_model_loader: - tensor  253:             blk.28.attn_q.weight f16      [  4096,  4096,     1,     1 ]
llama_model_loader: - tensor  254:             blk.28.attn_k.weight f16      [  4096,  4096,     1,     1 ]
llama_model_loader: - tensor  255:             blk.28.attn_v.weight f16      [  4096,  4096,     1,     1 ]
llama_model_loader: - tensor  256:        blk.28.attn_output.weight f16      [  4096,  4096,     1,     1 ]
llama_model_loader: - tensor  257:           blk.28.ffn_gate.weight f16      [  4096, 11008,     1,     1 ]
llama_model_loader: - tensor  258:           blk.28.ffn_down.weight f16      [ 11008,  4096,     1,     1 ]
llama_model_loader: - tensor  259:             blk.28.ffn_up.weight f16      [  4096, 11008,     1,     1 ]
llama_model_loader: - tensor  260:          blk.28.attn_norm.weight f32      [  4096,     1,     1,     1 ]
llama_model_loader: - tensor  261:           blk.28.ffn_norm.weight f32      [  4096,     1,     1,     1 ]
llama_model_loader: - tensor  262:             blk.29.attn_q.weight f16      [  4096,  4096,     1,     1 ]
llama_model_loader: - tensor  263:             blk.29.attn_k.weight f16      [  4096,  4096,     1,     1 ]
llama_model_loader: - tensor  264:             blk.29.attn_v.weight f16      [  4096,  4096,     1,     1 ]
llama_model_loader: - tensor  265:        blk.29.attn_output.weight f16      [  4096,  4096,     1,     1 ]
llama_model_loader: - tensor  266:           blk.29.ffn_gate.weight f16      [  4096, 11008,     1,     1 ]
llama_model_loader: - tensor  267:           blk.29.ffn_down.weight f16      [ 11008,  4096,     1,     1 ]
llama_model_loader: - tensor  268:             blk.29.ffn_up.weight f16      [  4096, 11008,     1,     1 ]
llama_model_loader: - tensor  269:          blk.29.attn_norm.weight f32      [  4096,     1,     1,     1 ]
llama_model_loader: - tensor  270:           blk.29.ffn_norm.weight f32      [  4096,     1,     1,     1 ]
llama_model_loader: - tensor  271:             blk.30.attn_q.weight f16      [  4096,  4096,     1,     1 ]
llama_model_loader: - tensor  272:             blk.30.attn_k.weight f16      [  4096,  4096,     1,     1 ]
llama_model_loader: - tensor  273:             blk.30.attn_v.weight f16      [  4096,  4096,     1,     1 ]
llama_model_loader: - tensor  274:        blk.30.attn_output.weight f16      [  4096,  4096,     1,     1 ]
llama_model_loader: - tensor  275:           blk.30.ffn_gate.weight f16      [  4096, 11008,     1,     1 ]
llama_model_loader: - tensor  276:           blk.30.ffn_down.weight f16      [ 11008,  4096,     1,     1 ]
llama_model_loader: - tensor  277:             blk.30.ffn_up.weight f16      [  4096, 11008,     1,     1 ]
llama_model_loader: - tensor  278:          blk.30.attn_norm.weight f32      [  4096,     1,     1,     1 ]
llama_model_loader: - tensor  279:           blk.30.ffn_norm.weight f32      [  4096,     1,     1,     1 ]
llama_model_loader: - tensor  280:             blk.31.attn_q.weight f16      [  4096,  4096,     1,     1 ]
llama_model_loader: - tensor  281:             blk.31.attn_k.weight f16      [  4096,  4096,     1,     1 ]
llama_model_loader: - tensor  282:             blk.31.attn_v.weight f16      [  4096,  4096,     1,     1 ]
llama_model_loader: - tensor  283:        blk.31.attn_output.weight f16      [  4096,  4096,     1,     1 ]
llama_model_loader: - tensor  284:           blk.31.ffn_gate.weight f16      [  4096, 11008,     1,     1 ]
llama_model_loader: - tensor  285:           blk.31.ffn_down.weight f16      [ 11008,  4096,     1,     1 ]
llama_model_loader: - tensor  286:             blk.31.ffn_up.weight f16      [  4096, 11008,     1,     1 ]
llama_model_loader: - tensor  287:          blk.31.attn_norm.weight f32      [  4096,     1,     1,     1 ]
llama_model_loader: - tensor  288:           blk.31.ffn_norm.weight f32      [  4096,     1,     1,     1 ]
llama_model_loader: - tensor  289:               output_norm.weight f32      [  4096,     1,     1,     1 ]
llama_model_loader: - tensor  290:                    output.weight f16      [  4096, 32000,     1,     1 ]
llama_model_loader: - kv   0:                       general.architecture str     
llama_model_loader: - kv   1:                               general.name str     
llama_model_loader: - kv   2:                       llama.context_length u32     
llama_model_loader: - kv   3:                     llama.embedding_length u32     
…
